…
, 'rho', 'sigma', 'tau', 'theta', 'xi', 'ypsilon', 'zeta'], 'logging': 40, 'mode': 'cluster', 'epochs': 50, 'dimensions': 28, 'tqdm': False, 'processing': 'gray-scale', 'root': 'out/cluster_50-12-05-2022-16-41-47'}
2022-05-12 16:41:47,075 |     INFO | Adjusted dim to %4=0 224
2022-05-12 16:41:47,124 |     INFO | torch.cuda.is_available()=True
2022-05-12 16:44:32,442 |     INFO | len(_trainset)=7113
2022-05-12 16:44:32,444 |     INFO | len(_validset)=2371
2022-05-12 16:44:32,444 |     INFO | len(_testset)=2371
2022-05-12 16:44:32,668 |     INFO | ConvAutoEncoder(
  (encoder): Sequential(
    (0): Conv2d(1, 16, kernel_size=(5, 5), stride=(1, 1), padding=(2, 2))
    (1): BatchNorm2d(16, eps=1e-05, momentum=0.1, affine=True, track_running_stats=True)
    (2): ReLU()
    (3): MaxPool2d(kernel_size=2, stride=2, padding=0, dilation=1, ceil_mode=False)
    (4): Conv2d(16, 32, kernel_size=(5, 5), stride=(1, 1), padding=(2, 2))
    (5): BatchNorm2d(32, eps=1e-05, momentum=0.1, affine=True, track_running_stats=True)
    (6): ReLU()
    (7): MaxPool2d(kernel_size=2, stride=2, padding=0, dilation=1, ceil_mode=False)
    (8): Conv2d(32, 4, kernel_size=(3, 3), stride=(1, 1), padding=(1, 1))
    (9): BatchNorm2d(4, eps=1e-05, momentum=0.1, affine=True, track_running_stats=True)
    (10): ReLU()
  )
  (decoder): Sequential(
    (0): Conv2d(4, 32, kernel_size=(3, 3), stride=(1, 1), padding=(1, 1))
    (1): BatchNorm2d(32, eps=1e-05, momentum=0.1, affine=True, track_running_stats=True)
    (2): ReLU()
    (3): Upsample(scale_factor=2.0, mode=nearest)
    (4): Conv2d(32, 16, kernel_size=(5, 5), stride=(1, 1), padding=(2, 2))
    (5): BatchNorm2d(16, eps=1e-05, momentum=0.1, affine=True, track_running_stats=True)
    (6): ReLU()
    (7): Upsample(scale_factor=2.0, mode=nearest)
    (8): Conv2d(16, 1, kernel_size=(5, 5), stride=(1, 1), padding=(2, 2))
    (9): BatchNorm2d(1, eps=1e-05, momentum=0.1, affine=True, track_running_stats=True)
    (10): Sigmoid()
  )
)
2022-05-12 16:48:43,269 |     INFO | Epoch=0 done.
2022-05-12 16:52:34,034 |     INFO | Epoch=1 done.
2022-05-12 16:56:27,480 |     INFO | Epoch=2 done.
2022-05-12 17:00:19,760 |     INFO | Epoch=3 done.
2022-05-12 17:04:13,268 |     INFO | Epoch=4 done.
2022-05-12 17:08:06,807 |     INFO | Epoch=5 done.
2022-05-12 17:11:58,208 |     INFO | Epoch=6 done.
…
