…
[32m2022-05-13 12:37:25,214 - util.base_logger - INFO - Adjusted dim to %4=0 224 (autoencoder.py:111)[0m
[32m2022-05-13 12:37:25,264 - util.base_logger - INFO - torch.cuda.is_available()=True (autoencoder.py:114)[0m
[32m2022-05-13 12:37:40,757 - util.base_logger - INFO - len(_trainset)=7113 (autoencoder.py:138)[0m
[32m2022-05-13 12:37:40,761 - util.base_logger - INFO - len(_validset)=2371 (autoencoder.py:139)[0m
[32m2022-05-13 12:37:40,761 - util.base_logger - INFO - len(_testset)=2371 (autoencoder.py:140)[0m
[32m2022-05-13 12:37:40,960 - util.base_logger - INFO - ConvAutoEncoder(
  (encoder): Sequential(
    (0): Conv2d(1, 16, kernel_size=(5, 5), stride=(1, 1), padding=(2, 2))
    (1): BatchNorm2d(16, eps=1e-05, momentum=0.1, affine=True, track_running_stats=True)
    (2): ReLU()
    (3): MaxPool2d(kernel_size=2, stride=2, padding=0, dilation=1, ceil_mode=False)
    (4): Conv2d(16, 32, kernel_size=(5, 5), stride=(1, 1), padding=(2, 2))
    (5): BatchNorm2d(32, eps=1e-05, momentum=0.1, affine=True, track_running_stats=True)
    (6): ReLU()
    (7): MaxPool2d(kernel_size=2, stride=2, padding=0, dilation=1, ceil_mode=False)
    (8): Conv2d(32, 4, kernel_size=(3, 3), stride=(1, 1), padding=(1, 1))
    (9): BatchNorm2d(4, eps=1e-05, momentum=0.1, affine=True, track_running_stats=True)
    (10): ReLU()
  )
  (decoder): Sequential(
    (0): Conv2d(4, 32, kernel_size=(3, 3), stride=(1, 1), padding=(1, 1))
    (1): BatchNorm2d(32, eps=1e-05, momentum=0.1, affine=True, track_running_stats=True)
    (2): ReLU()
    (3): Upsample(scale_factor=2.0, mode=nearest)
    (4): Conv2d(32, 16, kernel_size=(5, 5), stride=(1, 1), padding=(2, 2))
    (5): BatchNorm2d(16, eps=1e-05, momentum=0.1, affine=True, track_running_stats=True)
    (6): ReLU()
    (7): Upsample(scale_factor=2.0, mode=nearest)
    (8): Conv2d(16, 1, kernel_size=(5, 5), stride=(1, 1), padding=(2, 2))
    (9): BatchNorm2d(1, eps=1e-05, momentum=0.1, affine=True, track_running_stats=True)
    (10): Sigmoid()
  )
) (autoencoder.py:160)[0m
[32m2022-05-13 12:37:53,072 - util.base_logger - INFO - Epoch=0 done. (autoencoder.py:267)[0m
[32m2022-05-13 12:38:03,082 - util.base_logger - INFO - Epoch=1 done. (autoencoder.py:267)[0m
[32m2022-05-13 12:38:13,254 - util.base_logger - INFO - Epoch=2 done. (autoencoder.py:267)[0m
…
