…
2022-04-16 16:15:46,110 |     INFO | processing_mode=gray-scale
2022-04-16 16:15:46,110 |     INFO | tqdm_mode=True
2022-04-16 16:15:51,294 |     INFO | Global maximum resolution=199 - file=alpha_60867_[3]_bt1_Iliad_2_672_19.png
2022-04-16 16:15:51,295 |     INFO | Global minimum resolution=11 - file=alpha_60283_[-0_5-0_5]_bt1_Iliad_4_533_27.png
2022-04-16 16:16:03,618 |     INFO | plot saved ./out/unnamed-16-04-2022-16-15-46/resolution_distribution.png
2022-04-16 16:16:03,780 |     INFO | Setting padding resolution to (0, 0)
2022-04-16 16:16:12,237 |     INFO | Network(
  (layer1): Sequential(
    (0): Conv2d(1, 16, kernel_size=(5, 5), stride=(1, 1), padding=(2, 2))
    (1): BatchNorm2d(16, eps=1e-05, momentum=0.1, affine=True, track_running_stats=True)
    (2): ReLU()
    (3): MaxPool2d(kernel_size=2, stride=2, padding=0, dilation=1, ceil_mode=False)
  )
  (layer2): Sequential(
    (0): Conv2d(16, 32, kernel_size=(5, 5), stride=(1, 1), padding=(2, 2))
    (1): BatchNorm2d(32, eps=1e-05, momentum=0.1, affine=True, track_running_stats=True)
    (2): ReLU()
    (3): MaxPool2d(kernel_size=2, stride=2, padding=0, dilation=1, ceil_mode=False)
  )
  (fc): Sequential(
    (0): Linear(in_features=1568, out_features=256, bias=True)
    (1): Dropout(p=0.2, inplace=False)
    (2): ReLU()
  )
  (out): Linear(in_features=256, out_features=5, bias=True)
)
2022-04-16 16:16:29,815 |  WARNING | ./out already exists
2022-04-16 16:16:29,815 |     INFO | Created folder ./out/unnamed-16-04-2022-16-16-29
2022-04-16 16:16:29,816 |     INFO | Program starting in test-mode
2022-04-16 16:16:29,816 |     INFO | STARTING PROGRAM
2022-04-16 16:16:29,816 |     INFO | Selected parameters:
2022-04-16 16:16:29,816 |     INFO | epochs=3
…
2022-04-16 16:16:29,816 |     INFO | processing_mode=gray-scale
2022-04-16 16:16:29,816 |     INFO | tqdm_mode=True
2022-04-16 16:16:34,939 |     INFO | Global maximum resolution=199 - file=alpha_60867_[3]_bt1_Iliad_2_672_19.png
2022-04-16 16:16:34,940 |     INFO | Global minimum resolution=11 - file=alpha_60283_[-0_5-0_5]_bt1_Iliad_4_533_27.png
2022-04-16 16:16:47,386 |     INFO | plot saved ./out/unnamed-16-04-2022-16-16-29/resolution_distribution.png
2022-04-16 16:16:47,550 |     INFO | Setting padding resolution to (0, 0)
2022-04-16 16:16:57,761 |     INFO | Network(
  (layer1): Sequential(
    (0): Conv2d(1, 16, kernel_size=(5, 5), stride=(1, 1), padding=(2, 2))
    (1): BatchNorm2d(16, eps=1e-05, momentum=0.1, affine=True, track_running_stats=True)
    (2): ReLU()
    (3): MaxPool2d(kernel_size=2, stride=2, padding=0, dilation=1, ceil_mode=False)
  )
  (layer2): Sequential(
    (0): Conv2d(16, 32, kernel_size=(5, 5), stride=(1, 1), padding=(2, 2))
    (1): BatchNorm2d(32, eps=1e-05, momentum=0.1, affine=True, track_running_stats=True)
    (2): ReLU()
    (3): MaxPool2d(kernel_size=2, stride=2, padding=0, dilation=1, ceil_mode=False)
  )
  (fc): Sequential(
    (0): Linear(in_features=1568, out_features=256, bias=True)
    (1): Dropout(p=0.2, inplace=False)
    (2): ReLU()
  )
  (out): Linear(in_features=256, out_features=5, bias=True)
)
2022-04-16 16:16:57,764 |     INFO | ConvAutoEncoder(
  (encoder): Sequential(
    (0): Conv2d(1, 16, kernel_size=(5, 5), stride=(1, 1), padding=(2, 2))
    (1): BatchNorm2d(16, eps=1e-05, momentum=0.1, affine=True, track_running_stats=True)
    (2): ReLU()
    (3): MaxPool2d(kernel_size=2, stride=2, padding=0, dilation=1, ceil_mode=False)
    (4): Conv2d(16, 32, kernel_size=(5, 5), stride=(1, 1), padding=(2, 2))
    (5): BatchNorm2d(32, eps=1e-05, momentum=0.1, affine=True, track_running_stats=True)
    (6): ReLU()
    (7): MaxPool2d(kernel_size=2, stride=2, padding=0, dilation=1, ceil_mode=False)
    (8): Conv2d(32, 4, kernel_size=(3, 3), stride=(1, 1), padding=(1, 1))
    (9): BatchNorm2d(4, eps=1e-05, momentum=0.1, affine=True, track_running_stats=True)
    (10): ReLU()
  )
  (decoder): Sequential(
    (0): Conv2d(4, 32, kernel_size=(3, 3), stride=(1, 1), padding=(1, 1))
    (1): BatchNorm2d(32, eps=1e-05, momentum=0.1, affine=True, track_running_stats=True)
    (2): ReLU()
    (3): Upsample(scale_factor=2.0, mode=nearest)
    (4): Conv2d(32, 16, kernel_size=(5, 5), stride=(1, 1), padding=(2, 2))
    (5): BatchNorm2d(16, eps=1e-05, momentum=0.1, affine=True, track_running_stats=True)
    (6): ReLU()
    (7): Upsample(scale_factor=2.0, mode=nearest)
    (8): Conv2d(16, 1, kernel_size=(5, 5), stride=(1, 1), padding=(2, 2))
    (9): BatchNorm2d(1, eps=1e-05, momentum=0.1, affine=True, track_running_stats=True)
    (10): Sigmoid()
  )
)
2022-04-16 16:16:57,884 |     INFO | None
2022-04-16 16:18:58,799 |  WARNING | ./out already exists
2022-04-16 16:18:58,799 |     INFO | Created folder ./out/unnamed-16-04-2022-16-18-58
2022-04-16 16:18:58,800 |     INFO | Program starting in test-mode
2022-04-16 16:18:58,800 |     INFO | STARTING PROGRAM
2022-04-16 16:18:58,800 |     INFO | Selected parameters:
…
