unnamed-21-04-2022-23-20-25
cv2.version=4.5.5
----------------------------------------------------------------
        Layer (type)               Output Shape         Param #
================================================================
            Conv2d-1         [2592, 16, 28, 28]             416
       BatchNorm2d-2         [2592, 16, 28, 28]              32
              ReLU-3         [2592, 16, 28, 28]               0
         MaxPool2d-4         [2592, 16, 14, 14]               0
            Conv2d-5         [2592, 32, 14, 14]          12,832
       BatchNorm2d-6         [2592, 32, 14, 14]              64
              ReLU-7         [2592, 32, 14, 14]               0
         MaxPool2d-8           [2592, 32, 7, 7]               0
            Conv2d-9            [2592, 4, 7, 7]           1,156
      BatchNorm2d-10            [2592, 4, 7, 7]               8
             ReLU-11            [2592, 4, 7, 7]               0
           Conv2d-12           [2592, 32, 7, 7]           1,184
      BatchNorm2d-13           [2592, 32, 7, 7]              64
             ReLU-14           [2592, 32, 7, 7]               0
         Upsample-15         [2592, 32, 14, 14]               0
           Conv2d-16         [2592, 16, 14, 14]          12,816
      BatchNorm2d-17         [2592, 16, 14, 14]              32
             ReLU-18         [2592, 16, 14, 14]               0
         Upsample-19         [2592, 16, 28, 28]               0
           Conv2d-20          [2592, 1, 28, 28]             401
      BatchNorm2d-21          [2592, 1, 28, 28]               2
          Sigmoid-22          [2592, 1, 28, 28]               0
================================================================
Total params: 29,007
Trainable params: 29,007
Non-trainable params: 0
----------------------------------------------------------------
Input size (MB): 7.75
Forward/backward pass size (MB): 1918.61
Params size (MB): 0.11
Estimated Total Size (MB): 1926.47
----------------------------------------------------------------
----------------------------------------------------------------
        Layer (type)               Output Shape         Param #
================================================================
            Conv2d-1           [-1, 16, 28, 28]             416
       BatchNorm2d-2           [-1, 16, 28, 28]              32
              ReLU-3           [-1, 16, 28, 28]               0
         MaxPool2d-4           [-1, 16, 14, 14]               0
            Conv2d-5           [-1, 32, 14, 14]          12,832
       BatchNorm2d-6           [-1, 32, 14, 14]              64
              ReLU-7           [-1, 32, 14, 14]               0
         MaxPool2d-8             [-1, 32, 7, 7]               0
            Conv2d-9              [-1, 4, 7, 7]           1,156
      BatchNorm2d-10              [-1, 4, 7, 7]               8
             ReLU-11              [-1, 4, 7, 7]               0
           Conv2d-12             [-1, 32, 7, 7]           1,184
      BatchNorm2d-13             [-1, 32, 7, 7]              64
             ReLU-14             [-1, 32, 7, 7]               0
         Upsample-15           [-1, 32, 14, 14]               0
           Conv2d-16           [-1, 16, 14, 14]          12,816
      BatchNorm2d-17           [-1, 16, 14, 14]              32
             ReLU-18           [-1, 16, 14, 14]               0
         Upsample-19           [-1, 16, 28, 28]               0
           Conv2d-20            [-1, 1, 28, 28]             401
      BatchNorm2d-21            [-1, 1, 28, 28]               2
          Sigmoid-22            [-1, 1, 28, 28]               0
================================================================
Total params: 29,007
Trainable params: 15,663
Non-trainable params: 13,344
----------------------------------------------------------------
Input size (MB): 0.00
Forward/backward pass size (MB): 0.74
Params size (MB): 0.11
Estimated Total Size (MB): 0.85
----------------------------------------------------------------
