…
heta', 'xi', 'ypsilon', 'zeta'], 'logging': 40, 'mode': 'cluster', 'batch_size': 512, 'epochs': 1000, 'dimensions': 28, 'tqdm': False, 'processing': 'gray-scale', 'root': 'out/cluster_1000_gpu-13-05-2022-12-37-25'}
2022-05-13 12:37:25,214 |     INFO | Adjusted dim to %4=0 224
2022-05-13 12:37:25,264 |     INFO | torch.cuda.is_available()=True
2022-05-13 12:37:40,757 |     INFO | len(_trainset)=7113
2022-05-13 12:37:40,761 |     INFO | len(_validset)=2371
2022-05-13 12:37:40,761 |     INFO | len(_testset)=2371
2022-05-13 12:37:40,960 |     INFO | ConvAutoEncoder(
  (encoder): Sequential(
    (0): Conv2d(1, 16, kernel_size=(5, 5), stride=(1, 1), padding=(2, 2))
    (1): BatchNorm2d(16, eps=1e-05, momentum=0.1, affine=True, track_running_stats=True)
    (2): ReLU()
    (3): MaxPool2d(kernel_size=2, stride=2, padding=0, dilation=1, ceil_mode=False)
    (4): Conv2d(16, 32, kernel_size=(5, 5), stride=(1, 1), padding=(2, 2))
    (5): BatchNorm2d(32, eps=1e-05, momentum=0.1, affine=True, track_running_stats=True)
    (6): ReLU()
    (7): MaxPool2d(kernel_size=2, stride=2, padding=0, dilation=1, ceil_mode=False)
    (8): Conv2d(32, 4, kernel_size=(3, 3), stride=(1, 1), padding=(1, 1))
    (9): BatchNorm2d(4, eps=1e-05, momentum=0.1, affine=True, track_running_stats=True)
    (10): ReLU()
  )
  (decoder): Sequential(
    (0): Conv2d(4, 32, kernel_size=(3, 3), stride=(1, 1), padding=(1, 1))
    (1): BatchNorm2d(32, eps=1e-05, momentum=0.1, affine=True, track_running_stats=True)
    (2): ReLU()
    (3): Upsample(scale_factor=2.0, mode=nearest)
    (4): Conv2d(32, 16, kernel_size=(5, 5), stride=(1, 1), padding=(2, 2))
    (5): BatchNorm2d(16, eps=1e-05, momentum=0.1, affine=True, track_running_stats=True)
    (6): ReLU()
    (7): Upsample(scale_factor=2.0, mode=nearest)
    (8): Conv2d(16, 1, kernel_size=(5, 5), stride=(1, 1), padding=(2, 2))
    (9): BatchNorm2d(1, eps=1e-05, momentum=0.1, affine=True, track_running_stats=True)
    (10): Sigmoid()
  )
)
2022-05-13 12:37:53,072 |     INFO | Epoch=0 done.
2022-05-13 12:38:03,082 |     INFO | Epoch=1 done.
2022-05-13 12:38:13,254 |     INFO | Epoch=2 done.
2022-05-13 12:38:23,274 |     INFO | Epoch=3 done.
2022-05-13 12:38:33,327 |     INFO | Epoch=4 done.
2022-05-13 12:38:43,577 |     INFO | Epoch=5 done.
2022-05-13 12:38:53,685 |     INFO | Epoch=6 done.
…
